allensdk/internal/brain_observatory/resources/cr_weights.npy (npy, 82000 bytes, 1 tensors)

array f8 [2048, 5]
000000 00 78 98 39 79 e5 1c c0 00 c0 d4 a6 ba bc d2 3f
       -7.224095249110178 0.29276911060424027
000010 48 0e c5 03 af 3a 04 40 00 dc f5 4b cb 01 e2 bf
       2.528654126597562 -0.5627190097428638
000020 00 d8 3f ca 93 0f c6 3f 00 d8 11 46 38 13 1f 40
       0.1723503816171501 7.7687693546668015
000030 00 d0 dd 0e ca 2f 05 c0 58 c3 0a fe b4 9f 07 c0
       -2.64833461393755 -2.952981934264624
000040 00 ec 0b 7c 0c 81 df bf 00 44 3e 18 a9 d1 e2 bf
       -0.49225151170657 -0.588093325948762
000050 00 30 cf 31 37 a5 f9 bf 00 60 9a 67 fc 52 db 3f
       -1.602835840766602 0.42694006078227176
000060 74 51 ba 76 db 62 13 c0 00 66 f2 64 4c 23 e3 3f
       -4.846540312883338 0.5980588885897191
000070 00 40 98 ad b1 e1 b4 3f 00 20 82 2d 44 03 0d 40
       0.08156881797935966 3.626594882520294
000080 00 70 14 e8 a0 dd 19 40 a0 c7 ff 7b ca 8a 00 c0
       6.466434122321516 -2.067769020789413
000090 80 0d 41 f7 9c 6b e2 bf 00 c4 ef 41 c2 0a b6 3f
       -0.5756363705808525 0.08610166654376883
0000a0 00 54 1e 27 c7 57 2f 40 00 10 fc e4 c8 31 e7 3f
       15.67144129033295 0.7248272392612307
0000b0 3e 1a aa ec b8 47 26 40 00 e4 c2 c4 5b fa c1 bf
       11.140082736744372 -0.14045283420071542
0000c0 80 e4 fb a0 ea ce f5 bf 00 10 4a 59 1f c7 f5 3f
       -1.3630167282520063 1.3611138809073964
0000d0 00 90 83 14 a8 9b f9 3f 80 f7 1d 1b 4b 4a ee bf
       1.6005020905804486 -0.9465690164213214
0000e0 00 10 c6 09 4d 80 d0 3f 00 36 28 70 4c d5 d0 bf
       0.25783086733304117 -0.2630187125476766
0000f0 00 1c 17 93 9d 16 0f c0 00 d4 ed 55 80 d8 0b 40
       -3.8860427371432706 3.48071353084606
000100 a0 c1 7f 0b b0 f1 0d 40 00 a8 15 2a 44 4b b7 3f
       3.7430115602839606 0.0909922220941155
000110 00 b0 c1 5a 15 43 c1 bf 00 4b 8f a5 24 2a 25 c0
       -0.13485972339128693 -10.582310842267816
000120 80 73 a9 00 c9 21 22 40 2d 5c d9 cc 9a 6d 05 c0
       9.065986653027494 -2.6785179141839053
000130 00 74 9c 08 fd 07 b1 3f 00 a0 db 60 f7 2e 8a bf
       0.06652814350350411 -0.01278489364945301
000140 00 d8 c2 a0 5f a4 29 40 00 38 e9 bb c8 5e 23 40
       12.821042083534849 9.685125229090772
000150 40 fc b7 ab 3c ea cd bf 00 40 5f 26 5d a3 a9 3f
       -0.23371084580137058 0.05007449239167272
000160 00 c0 0f b4 1f 52 a4 3f 00 e8 be d7 d0 f3 e4 bf
       0.03968905518547672 -0.6547626699241391
000170 00 00 f9 9c 4b 09 16 c0 80 78 bb ad a3 d9 b9 bf
       -5.509077503869776 -0.10097716323386585
000180 00 1e 26 87 cd ea ce 3f 00 96 c8 8a 37 1e ed 3f
       0.24154061411921646 0.9099385939231865
000190 00 a8 9d 64 6b fc e9 3f 00 e9 16 16 0d 3f f5 bf
       0.8120629277375429 -1.3278933394308865
0001a0 d8 ed c1 42 3b 61 f5 bf 00 0f cd 08 f7 34 bd bf
       -1.3362381561008672 -0.11408943142765438
0001b0 00 08 5f fd 05 48 c1 3f 00 fc 74 50 5e f7 2a c0
       0.13501047965661428 -13.483141435890502
0001c0 00 98 c7 92 64 76 24 40 c0 20 64 b2 38 60 ee 3f
       10.231236063827964 0.9492457851602225
0001d0 00 a4 53 05 b7 81 ce 3f 00 50 a8 25 b0 58 cf bf
       0.23833358535856064 -0.24489404524558722
0001e0 00 e8 0d 84 3e e7 26 40 00 00 da 5a a5 f2 dd bf
       11.451648832986393 -0.46793493149016285
0001f0 c6 5f 95 d9 af c4 1a 40 00 8c 72 a6 a4 7b b0 3f
       6.692077064268181 0.06438664497049729
000200 00 53 96 84 d5 9d d4 3f 00 40 9d 8e 89 1a 0f 40
       0.3221334261700548 3.8879576818217174
000210 00 a0 50 0a 2c fb f5 bf b0 f6 dd 95 65 25 f2 bf
       -1.373821296971073 -1.1341300825292073
000220 00 20 80 d1 5b 5d b8 bf 00 a0 cf 88 b5 86 b1 bf
       -0.09517454018362059 -0.06846174802888072
000230 00 48 33 b3 32 40 23 40 00 e0 b3 a7 8f 04 07 40
       9.625386810312193 2.8772271253365034
000240 4a 4f ff 4b a3 19 17 40 00 d8 ab 20 2f 90 d8 3f
       5.775036990602368 0.3838002986007041
000250 00 64 e0 c2 cb 39 f9 3f 00 00 80 25 8a a9 43 3f
       1.5766103374828617 0.0006000446837788331
000260 00 b4 42 d5 f4 3f 16 40 2b 7e 0b 97 52 ef 13 c0
       5.56245740146278 -4.983713493420093
000270 00 8c 58 0e bb 14 b7 3f 00 11 54 07 03 3a dd bf
       0.09016007518998492 -0.45666576114332713
000280 80 52 46 04 d2 95 34 40 00 aa aa 8e 57 6e 16 c0
       20.585235850494882 -5.607755879560955
000290 b6 35 5c c4 08 cd 23 c0 00 5a d6 27 4a 91 d5 bf
       -9.900457512146073 -0.33699277773249037
0002a0 00 1d 0d be 4f c7 e7 bf 00 ee 7d 31 da e7 15 c0
       -0.7430800163209881 -5.476418278990877
0002b0 00 18 a2 10 a9 57 e9 3f d8 b0 d3 3c 32 10 f2 3f
       0.791950733648946 1.1289541603137447
0002c0 00 a0 08 b9 b7 b7 d4 3f 00 a9 18 6c c3 10 d9 3f
       0.32371323651977946 0.391648154795476
0002d0 00 85 2a 28 f8 26 10 40 00 14 73 1a fe 15 f4 bf
       4.038056018443285 -1.255369284933522
0002e0 d8 69 2c 66 23 05 04 40 00 b8 f6 d5 e9 7b d2 3f
       2.502508924703971 0.28881307501694664
0002f0 00 20 cf 24 73 48 ac bf 00 b8 f7 3d dc b3 14 c0
       -0.055240247958465716 -5.175644844288399
000300 00 00 6a 70 d3 96 ea bf dc fd 72 40 d6 fc 34 40
       -0.8309113689028891 20.987644222330218
000310 00 40 0f 35 c1 f4 d5 bf 80 81 ff 93 90 0b 19 40
       -0.34306364232634223 6.261293709249344
000320 00 e0 7b 46 a0 9f 0b 40 00 70 b3 30 40 83 0c 40
       3.452942419677129 3.5640872769126872
000330 e0 38 a2 d9 38 71 f7 bf 00 c2 1f d7 ad 8b ec bf
       -1.4651421071353568 -0.8920506669656447
000340 00 48 9e 70 22 c6 e7 bf 00 a0 62 87 09 67 f9 3f
       -0.7429363441062833 1.5876555717932206
000350 00 00 73 38 f4 0a e4 bf 24 5a 79 1a 29 a2 03 c0
       -0.626337156536465 -2.454179961040852
000360 00 08 9f 86 28 c2 c8 bf 00 11 62 94 8c ef f2 bf
       -0.1934252412157207 -1.183483676549315
000370 00 89 d2 67 51 78 14 c0 00 62 df bf 2c 28 14 c0
       -5.117498037552878 -5.0392332058040665
000380 b8 8b 1e 21 89 c0 0a c0 c0 5e 92 00 23 87 d0 bf
       -3.344011553520854 -0.25824809127650994
000390 00 2a f7 7b 00 c8 b5 3f 00 28 7a 9a e7 56 f8 3f
       0.08508303667546357 1.5212169679894032
0003a0 00 0c bb a0 49 08 20 c0 ff 6e 58 51 05 b7 04 c0
       -8.016186735947485 -2.5893656115639483
0003b0 00 5a 28 69 6e e0 c5 3f 00 31 94 4a 6b 15 c8 bf
       0.17091159948968482 -0.1881536592631008
0003c0 00 83 94 1d 9f aa 12 c0 00 38 8e ac 80 13 ff 3f
       -4.666622602643429 1.9422613850069865
0003d0 36 99 bf e1 f2 41 06 c0 00 b2 b1 82 c1 93 d1 bf
       -2.7822015415760246 -0.2746433044729031
0003e0 00 44 4f 6f 42 df e2 bf 00 58 cf 9e 9e c9 23 40
       -0.5897533582702863 9.893788302240864
0003f0 00 c6 b0 a6 6c e3 24 c0 50 e8 c3 e4 bf da f0 bf
       -10.444188317374028 -1.0534056602614505
000400 00 88 49 02 2c 11 db 3f 00 38 de 65 7b 61 c2 bf
       0.42292309020388075 -0.14359991525674332
000410 00 50 ad 8a 6d 80 05 c0 00 98 59 b6 9c df 1b c0
       -2.6877089342251566 -6.968371247499817
000420 b0 7a 97 ce 43 29 0f c0 00 5e 95 5e 89 5d e1 3f
       -3.8951488628366278 0.5426680419286072
000430 00 a4 8a 37 32 63 cf 3f 00 98 5c db 62 55 0a 40
       0.24521472656240917 3.291692460787999
000440 00 f8 c9 89 c6 36 11 c0 71 dc 15 ec 5b 9e 15 c0
       -4.303491738273806 -5.404647530397697
000450 00 66 0a 66 91 44 d7 bf 00 bc 6e 6b fb c4 d4 bf
       -0.36356005635170163 -0.3245228337427193
000460 00 40 26 06 16 e2 f2 3f 00 78 d7 15 f0 e2 11 c0
       1.1801967849933135 -4.471618977810067
000470 b3 4f 9e 76 1a 34 00 c0 00 f0 0c a0 d5 2f c9 3f
       -2.0254410998404295 0.19677229227988846
000480 00 00 c9 b4 4d 1a ab 3f 00 80 d6 cb 13 b0 e8 3f
       0.0529350550827985 0.7714938145836641
000490 00 80 04 94 75 c5 e0 3f 00 01 28 6e 9c 7e bd 3f
       0.5241039172142337 0.1152131813942141
0004a0 00 90 82 92 f1 a3 a4 3f 00 10 1d 58 bd 9d cc 3f
       0.04031329072429912 0.22356383135240776
0004b0 00 70 3a 8f 8f 02 fa bf 00 a0 e6 f3 98 30 04 c0
       -1.6256251902441363 -2.5237292341953435
0004c0 10 6c 41 b9 b8 58 f6 bf 00 7e 8f 46 52 45 c4 3f
       -1.396660541204941 0.15836552090966904
0004d0 00 00 60 48 1f e8 b4 3f 00 70 69 f8 7f c6 13 c0
       0.08166690365760587 -4.943847543177981
0004e0 00 98 69 f0 72 a5 13 40 60 b3 50 60 3b 8e fd 3f
       4.911571270413333 1.8472245943368861
0004f0 00 f0 83 cc 33 a6 db 3f 00 30 88 7a a9 cf c0 3f
       0.43201918575482523 0.13133734210020975
000500 00 b0 41 c9 66 56 0d 40 00 f4 11 03 c8 28 18 40
       3.6671882365390047 6.039825485201618
000510 2c b6 69 c5 8f 4f 09 40 00 c0 eb f9 f0 44 ad 3f
       3.1638484404454825 0.05716660548011987
000520 00 9c 39 b6 7d dd eb 3f 00 14 82 a5 ff 66 3a c0
       0.8707874831278559 -26.4023383562635
000530 00 40 a0 89 84 71 f2 bf 80 30 0e 6b 80 ee 0f 40
       -1.152714288331481 3.9914558757500913
000540 00 30 89 7f 94 ad da bf 00 b4 94 3a c9 be f1 bf
       -0.4168444867580092 -1.1090786255183502
000550 00 34 d2 c7 42 2b 20 c0 00 38 e7 4d ac d4 03 c0
       -8.084493870172082 -2.478844269388901
000560 40 65 7f 4e 38 2c e5 bf 80 5b 16 21 d6 91 e9 bf
       -0.6616479428441053 -0.799052300094317
000570 00 3c b6 0a ab f7 ec 3f 00 68 ce 00 b8 b1 fd bf
       0.9052329262939338 -1.855888369702825
000580 00 e9 6e b4 be 9a 18 40 f0 c8 92 19 8f 93 f7 3f
       6.151118106145304 1.4735251425705052
000590 80 b1 1a bf b2 ab d2 3f c0 99 f0 fa 23 af e6 3f
       0.2917296282055517 0.7088794613999241
0005a0 00 64 2f dd a1 ba 20 40 00 00 0b 56 20 41 e9 3f
       8.364516174349774 0.7891999893690809
0005b0 ec d7 9a 58 87 98 13 c0 00 30 4a 5c 39 c1 d4 bf
       -4.898953804446119 -0.3242934609668282
0005c0 00 f8 db 0b d5 d3 c2 bf 00 54 32 e1 c6 9f 11 c0
       -0.1470896060854443 -4.406032103249345
0005d0 00 dc 13 1d ec e0 14 40 fa ed 42 16 cd 2d 20 40
       5.21965070184433 8.08945531432163
0005e0 00 f0 8f e0 2f 92 d8 bf 00 48 87 32 bf 7f c2 3f
       -0.38392254762561606 0.14452352492531872
0005f0 00 02 0a a2 ce ba 25 40 00 05 23 a8 5e 8b 20 40
       10.864857734414727 8.272206548952909
000600 48 3e 8f 0b 94 e4 00 c0 00 54 7f e6 28 ad c0 bf
       -2.111610498722971 -0.13028441672091162
000610 00 20 16 e8 5f a2 b5 3f 00 fa 33 a2 90 b9 16 40
       0.08450889030621056 5.6812157959197975
000620 00 08 9c ca d8 92 0f 40 28 6c 1b fd ec 48 12 c0
       3.946702559363075 -4.571216540144668
000630 00 fc 31 c7 71 a5 d3 3f 00 38 7e ee 02 eb c0 bf
       0.3069729275957229 -0.13217198033493105
000640 00 d0 2f f6 12 99 1c c0 00 60 4f c8 b8 2c 0a 40
       -7.149486395519489 3.2718368195746734
000650 30 94 82 2e bc 66 0a 40 00 c0 84 62 0e 6e c6 3f
       3.300163615570021 0.1752336484000807
000660 00 10 3d 1b da 6f d1 bf 00 c4 14 9f c1 18 03 c0
       -0.27245190296184774 -2.387088053532807
000670 00 cb 9e aa f4 8b 13 c0 40 79 a8 f0 99 c4 03 40
       -4.886675516073183 2.4709967423833916
000680 00 b0 7f 3b ab 29 d2 bf 00 58 42 ef ac 93 a1 3f
       -0.2837932663958327 0.034329799848975995
000690 00 3d 9d 32 aa 3a 2c 40 00 d8 bd 95 8b ef e2 3f
       14.114579755491377 0.5917413639679125
0006a0 25 06 68 86 88 2c f7 bf 00 a2 39 04 52 9d c2 3f
       -1.4483723879096797 0.1454260368948468
0006b0 00 c8 09 c7 07 3a b5 3f 00 dc 1e fe 34 c5 22 c0
       0.08291672334033251 -9.385169926898016
0006c0 00 c0 d4 ee d8 bc d9 3f 51 4b eb 42 8b b5 27 c0
       0.4021513302168387 -11.854578105184972
0006d0 00 9c 76 a3 e0 1b da bf 80 63 64 76 0c 12 e2 3f
       -0.4079515072175468 0.5647032081934498
0006e0 00 90 33 4a d4 57 f7 bf 00 00 90 9d 97 03 03 c0
       -1.4589426897518933 -2.37675402732566
0006f0 e0 e1 96 53 89 54 12 40 00 b4 11 8b 87 00 c7 bf
       4.582555109104277 -0.1797036580132101
000700 00 58 be 50 0d 81 c6 3f 00 00 2b eb 01 22 ce bf
       0.1758133548980254 -0.2354128263741586
000710 00 58 be 0b 17 45 f6 bf 6c 57 27 6a eb a1 06 40
       -1.3918676813823367 2.8290622990852423
000720 00 9c 1f dc 14 47 c6 3f 00 20 be f5 9e 7e df 3f
       0.17404423473564634 0.49210332868869955
000730 00 00 35 4e 46 71 04 40 00 40 98 b8 91 9b f4 bf
       2.5553098783420864 -1.287980767319823
000740 94 4a b9 f5 6f 70 3a c0 00 30 2a 08 86 a2 df bf
       -26.439208371865405 -0.49429465100615744
000750 00 18 4a 22 15 9f d8 bf 00 78 a5 99 32 5b f1 bf
       -0.38470962856843016 -1.0847650529681232
000760 00 66 00 7c e3 f8 11 40 54 7a 03 1d 52 1e e2 3f
       4.493055284046477 0.5662012640639866
000770 80 b4 f7 17 7e 55 df 3f 80 19 6a 5f 09 1c d4 bf
       0.48959305134378184 -0.31421121900384463
000780 00 49 22 f2 ca 02 18 c0 00 d8 5d a1 62 17 f8 bf
       -6.002727301924324 -1.5057092955953522
000790 cc c0 1a 8d 72 a1 1c c0 00 44 a7 6d c9 0e a1 bf
       -7.157663540609246 -0.033315939555571106
0007a0 00 a1 f3 97 f3 79 e3 bf 00 00 ff 53 8e 63 f5 3f
       -0.6086366622739945 1.3368056565377628
0007b0 00 d8 42 e0 ba 07 05 c0 c0 e9 b6 97 9f b8 ec bf
       -2.628774406471166 -0.8975370371984397
0007c0 00 e8 0d 04 0f 53 d5 bf 00 27 40 5d 14 04 e7 bf
       -0.33319449802331746 -0.7192479916859327
0007d0 00 38 cf 3f 67 e6 27 c0 00 50 6d ce de e5 19 c0
       -11.950006479306467 -6.474482751295
0007e0 80 54 4c 0e 0c e0 fa 3f 00 04 ca 64 a9 0e d9 bf
       1.6796989973566099 -0.3915198787945542
0007f0 00 68 1b 3b bb 1f ce 3f 00 68 10 69 81 6c 0a 40
       0.23534336458288863 3.30298120576208
