allensdk/internal/brain_observatory/resources/pupil_weights.npy (npy, 32848 bytes, 1 tensors)

array f8 [2048, 2]
-0.003361915989842146 0.0013057678649399662 0.01074637186024674 0.005311032731297516 0.0003603445797182303 0.0002928200927767577 0.0067440358667689715 0.016051670010434282
0.018454353413845936 -0.0103637782230237 0.009537899409819417 0.005897130729072497 -0.001820780808101219 0.008987598992032275 -0.021529731342417646 0.017422570962248862
0.019141817539411576 0.021937707056066458 0.008906558462159708 -0.009351681372259169 -0.00028460688660292277 0.0011541506157649595 -0.018251600381580246 0.020656589538756265
0.006981031032498919 -0.0028119544105034144 0.004954534252760823 -0.005750660299995047 0.012361860507358102 -0.000984064199577972 0.005852553717466513 0.00999670485944204
0.024374304670589098 0.002318145610225919 -0.009948643121687084 0.0028765856686945313 0.007043657426454297 -0.006755300149289711 -0.02479693410715811 -0.00592479134584778
0.013094723791365226 0.00013830858761920695 0.004707817316955243 -0.007780585079847135 -0.006436500014755708 -0.011390258701536204 0.0011127343022980796 -0.019418959788561452
-0.006073835297340846 0.0033695568758025374 0.010590805690535277 -0.02274286980958884 0.0051653009193337596 -0.01662744229637525 0.011844983086299443 -0.0060600015153324804
-0.0050453675763399985 -0.006868773820080776 -0.003767011401478726 5.3075160268534205e-05 -0.005318207404970465 0.0003166963275473833 -0.004193143060838622 0.013656143657886588
0.007514053001029808 0.010432186808588817 -0.01621230177757127 0.006660118359693712 -0.015029371728793706 -0.00465966611594304 0.0065471744748444305 0.011204624788953232
0.005953201130550312 0.001780369997124609 0.002874026615209857 0.02208499183546664 0.021351307375198303 0.006293279317221234 0.002784872129619309 0.0048932416063731665
-0.004158547356531983 0.01086252314421543 0.00535387559741296 -0.004905909491058846 0.027909721639967078 0.0010124726681857155 -0.015045395287890173 0.0034053025901741307
-0.004755975589848305 -0.005340707700442593 0.0033914864524238197 -0.0012201352901124451 0.015056284092178629 -0.006024388405297287 -0.003362669405280627 0.006482932263773833
-0.010415522398368626 -0.017301218489967685 -0.0029658460347601334 -0.007662359967959276 -0.01081592428548106 -0.024780596334792904 0.0027879535572008507 0.006362639684814653
-0.003961460144481066 0.0010480450611360936 -0.003056271217625195 -0.018910626573800826 0.012075530604353624 -0.014877730731422734 0.0027716365488892336 0.0011088957163623014
0.006196931385275661 0.006040167064975677 -0.0025781348462414755 0.00865219134259565 -0.005639860832925336 0.009150890362310093 0.00675501517158672 0.00810272598268691
0.004975369320733947 0.02354942752648892 -0.004113817211138127 -0.014671449022074512 -0.002352549589492048 -0.0027889095692716914 0.018188183835711413 0.009206496605264292
0.008469582156227062 0.011452127523860156 -0.04266382298106208 -0.014696437304110077 -0.00711407515808915 0.015610324516564411 5.503646355098368e-05 0.0025606142754153183
-0.00011822320714971468 -0.0017931367720467328 -0.006283876241681696 -0.004091642157275643 -0.0077628941409368935 -0.010126486817792824 -0.007738663009160818 -0.006092604555768322
0.018559660128502742 0.012069305933720464 0.007638883424776921 -0.0010673336565947267 -0.0017359304971904521 0.0014604694487115877 -0.01839654582294159 -0.010380412651628035
0.005863547029844263 0.012383290521988943 -0.020577293530601892 -0.014812046054044181 0.02511133098416707 0.02481066862330117 -0.00853762514913825 -0.023677030492667228
0.00039438687785864346 -0.0002407847128971241 0.009761312224745744 -0.023499587385205523 -0.003472936252276071 -0.0018736461678408034 0.016522677114417572 -0.023891210738160584
-0.01046329296183135 0.012993167360296098 0.01843145367456067 -0.005555664920299241 -0.0031851729027874143 0.024743642566338764 0.018525849893937796 -0.0012175432634853323
0.0030908972583656436 -0.01139092343255399 0.021014952918072538 0.012505189422771679 -0.01788500334638954 0.013331107861613845 0.0011051170172406977 -0.010124324479288571
0.01371993038692132 0.014480548304170782 0.011079155056240353 -0.004224167135120638 -0.01627651795532259 0.019063780184702228 -0.026059370067578413 0.0018589103527100193
0.005645027503534905 -0.007322214135953242 0.0013597563917837618 0.012002662360034222 0.009430592501663781 0.002398885446336152 -0.004754703985735631 3.328542999803119e-05
-0.0077816312414338284 -0.009545989391409382 0.008669031766822322 0.054742177594893526 -0.0009544769871538961 -0.0014038222118308852 0.013520760249582153 0.011688745123374034
0.006278818934571717 0.003943432701156269 -0.005549747073953615 -0.003158984979366064 -0.018738738998010263 0.007767772546260154 -0.009064866908517821 0.003584521170907351
-0.013363863142326515 0.013137732388956103 0.01346396315225995 -0.014432637541649918 0.000875947173576197 -0.014616456194973981 0.0008590153642913378 0.008525122792498507
0.014319009440092678 0.009250354944106753 0.03232378909563849 -0.0026089654770862225 0.0017374100167621975 0.0008230495271384086 0.01731428751723385 0.007518216968101399
0.007605602819083401 0.012319446939743628 -0.0017376278841041426 -0.0084434724068716 0.018238496508404367 -0.01769844905912521 0.009662119454159068 0.004731184007205513
-0.004036296278558282 0.007204528531691068 0.010949559049855395 0.008216150872122796 -0.01623280414463757 -0.020580223300135536 -0.0059124397366110415 0.0034972626753471125
0.0037252060973518297 -0.003392881574148632 -0.030875152564451724 0.020806340151739988 0.02396215666854573 -0.006642828016168778 -0.013055580339486283 -0.036334561756069306
00000000: 0000 4ee7 728a 6bbf 0060 ab91 c964 553f
00000010: 00f8 859d 3102 863f 00f8 387e 05c1 753f
00000020: 0000 682f 949d 373f 00c0 dab8 b430 333f
00000030: 006a da57 a29f 7b3f 80c8 f656 d96f 903f
00000040: 0072 86b1 b2e5 923f 0040 3fc4 9a39 85bf
00000050: 003c 4d30 9b88 833f 0016 f2f9 9627 783f
00000060: 00e0 8881 e8d4 5dbf 0038 ec1d 1768 823f
00000070: c086 07d0 e30b 96bf 00fb faf1 38d7 913f
00000080: 0066 45a1 e999 933f 008e 6b99 d676 963f
00000090: 00e4 840a 9a3d 823f 0071 406d f926 83bf
000000a0: 0040 2a45 e9a6 32bf 0042 8fc9 dbe8 523f
000000b0: 0046 f42a 8cb0 92bf 003c 1042 0027 953f
000000c0: 0090 a13f 2498 7c3f 00fc 6387 1809 67bf
000000d0: 0000 52a9 344b 743f 00c0 b31e 018e 77bf
000000e0: 0048 c6d4 2c51 893f 0080 7ae3 761f 50bf
000000f0: 009c 08ed d8f8 773f 0036 8303 2779 843f
00000100: 0012 b1e5 93f5 983f 0048 aaf2 80fd 623f
00000110: 001c c746 f45f 84bf 00c0 e02b a390 673f
00000120: 0051 a764 cfd9 7c3f 002d 7413 72ab 7bbf
00000130: 0010 2014 5e64 99bf 0080 0e11 9844 78bf
00000140: 00f8 7813 68d1 8a3f 0000 9eb8 dd20 223f
00000150: 0000 9716 8148 733f 0014 63e7 88de 7fbf
00000160: 0078 06d1 285d 7abf 00ba eda4 c653 87bf
00000170: 0020 005c 253b 523f 005a db54 90e2 93bf
00000180: 00f6 69bf e0e0 78bf 00b8 ac12 799a 6b3f
00000190: 0014 a2e0 a1b0 853f 008e 3228 e849 97bf
000001a0: 0050 5ce8 3528 753f 0028 84c3 c806 91bf
000001b0: 0092 d1b7 2e42 883f 002c 2745 5fd2 78bf
000001c0: 0070 c98b 73aa 74bf 00e0 bb6e 6e22 7cbf
000001d0: 0080 bcd8 fedb 6ebf 0000 e49e a0d3 0b3f
000001e0: 0008 0b6e 8bc8 75bf 00c0 9c5e 48c1 343f
000001f0: 0020 0545 d42c 71bf 0068 3393 c0f7 8b3f
00000200: 00b8 653e 0ec7 7e3f 0066 5969 785d 853f
00000210: 00d0 b527 f599 90bf 0090 ade8 a347 7b3f
00000220: 00d0 6f20 b8c7 8ebf 0088 4099 0316 73bf
00000230: 00b7 02c4 35d1 7a3f 0092 4248 73f2 863f
00000240: 0078 9842 6262 783f 0040 65ba 692b 5d3f
00000250: 00c0 3e4a 458b 673f 00bc a9b6 729d 963f
00000260: 0000 9dfb 1ddd 953f 0008 a24d fbc6 793f
00000270: 0058 0cd7 4cd0 663f 0098 bb8a ef0a 743f
00000280: 00a0 528e 8d08 71bf 0068 402d 173f 863f
00000290: 0059 9009 f2ed 753f 00c6 230d 3818 74bf
000002a0: 808a bcb6 5d94 9c3f 0070 de3f 9e96 503f
000002b0: 002c bcc5 1ed0 8ebf 00c0 3fe8 6fe5 6b3f
000002c0: 0050 e779 007b 73bf 0008 934e 23e0 75bf
000002d0: 0050 bc6c 76c8 6b3f 0010 bc4a 9efd 53bf
000002e0: 0098 333e d4d5 8e3f 00d0 dd72 07ad 78bf
000002f0: 0020 ef63 078c 6bbf 00a8 e1e0 d88d 7a3f
00000300: 00f1 92c0 bb54 85bf 80a6 611e 69b7 91bf
00000310: 0030 2d77 d44b 68bf 00a0 8f17 9162 7fbf
00000320: 0040 a8c8 a826 86bf 0050 55ab 1560 99bf
00000330: 00f0 3a2b c3d6 663f 00d8 cc15 b60f 7a3f
00000340: 0040 3d5c e439 70bf 00c0 c9d0 d12b 513f
00000350: 0050 ad1d 7709 69bf 00b2 b9aa 4e5d 93bf
00000360: 006a 3848 0ebb 883f 00f5 7037 3778 8ebf
00000370: 0020 af0a 8bb4 663f 0068 88b5 0b2b 523f
00000380: 0040 2a1a f461 793f 0068 1a00 93bd 783f
00000390: 0058 2d9b bd1e 65bf 006a d776 3db8 813f
000003a0: 0070 4d9d d219 77bf 00e8 aeb6 b3bd 823f
000003b0: 0068 ef93 25ab 7b3f 002d d578 2998 803f
000003c0: 0008 4a88 0d61 743f 005f 4354 571d 983f
000003d0: 0010 2366 a6d9 70bf 00c0 e08d 100c 8ebf
000003e0: 001e 9271 a745 63bf 005c 876c c4d8 66bf
000003f0: 00f8 fd5a ec9f 923f 008c a40e dbda 823f
00000400: 0068 f912 8058 813f 0010 7a89 3674 873f
00000410: 001c da58 08d8 a5bf 0000 b66c 2a19 8ebf
00000420: 0010 5302 a623 7dbf 008e 3a4a 4ef8 8f3f
00000430: 0000 027d deda 0c3f 0030 4252 fff9 643f
00000440: 0080 bc3b d3fd 1ebf 00b8 c3f2 f560 5dbf
00000450: 00c0 332f 1fbd 79bf 00f8 09d4 65c2 70bf
00000460: 0078 5207 fccb 7fbf 0078 a50d 32bd 84bf
00000470: 8032 a088 93b2 7fbf 0022 0815 8ff4 78bf
00000480: 0070 1bb5 4d01 933f 007e 2ad2 cab7 883f
00000490: 0048 cc27 f349 7f3f 0020 89c9 b87c 51bf
000004a0: 0000 ab2d 0571 5cbf 00ae 3721 a7ed 573f
000004b0: 00f4 ac4a 8bd6 92bf 00a0 dc66 5342 85bf
000004c0: 0034 b5eb 5f04 783f 0071 781e 695c 893f
000004d0: 003a 04cb 3612 95bf 009a 1c2b c755 8ebf
000004e0: 0018 58e5 c8b6 993f 00de 50c9 f767 993f
000004f0: 0090 68a6 2c7c 81bf 0094 879e ca3e 98bf
00000500: 0040 0cbe b6d8 393f 0000 3eef 648f 2fbf
00000510: 00ae 2b26 bdfd 833f 00e3 279d 4610 98bf
00000520: 00e0 fc73 4673 6cbf 0040 f840 a4b2 5ebf
00000530: 8029 6517 52eb 903f 8004 2103 f076 98bf
00000540: 00e2 a268 c76d 85bf 0048 1267 299c 8a3f
00000550: 00fa ffea b1df 923f 0057 3e72 89c1 76bf
00000560: 00f0 62ae ca17 6abf 00e4 6cbe 6556 993f
00000570: 0045 b3bd 70f8 923f 0070 e11f bff2 53bf
00000580: 00b0 7ad4 1452 693f 0098 e9dc 1f54 87bf
00000590: 0058 0a9e f184 953f 0008 cf1c 529c 893f
000005a0: 00ac d841 7250 92bf 00d8 4702 574d 8b3f
000005b0: 0098 a05c 321b 523f 00d7 42d4 0fbc 84bf
000005c0: 0094 85e2 3119 8c3f 0010 284b faa7 8d3f
000005d0: 0028 1205 abb0 863f 00c0 2b3b 5c4d 71bf
000005e0: 0054 3ea1 caaa 90bf 80c8 b9a1 7485 933f
000005f0: 0048 c7b8 4eaf 9abf 0010 f3ca d574 5e3f
00000600: 0008 3488 3d1f 773f 00be f8e3 e5fd 7dbf
00000610: 0060 ed4e 3b47 563f 0004 6912 da94 883f
00000620: 002c 03b3 5850 833f 0060 3ed1 d3a6 633f
00000630: 0030 ef21 ab79 73bf 0000 8caa 7e73 013f
00000640: 0058 10bb a1df 7fbf 00d9 f301 d98c 83bf
00000650: 0072 69bf 11c1 813f 80ba f6ac 2a07 ac3f
00000660: 0000 e9b8 bb46 4fbf 0040 4f9f 0e00 57bf
00000670: 004c b6b8 c5b0 8b3f 0014 4ad0 44f0 873f
00000680: 0030 b49f d1b7 793f 0060 c427 fd26 703f
00000690: 0072 f0e2 54bb 76bf 000c 9925 dfe0 69bf
000006a0: 00b0 a87c 3f30 93bf 0084 c890 19d1 7f3f
000006b0: 0042 51d7 9990 82bf 0080 6d26 495d 6d3f
000006c0: 00f6 2759 835e 8bbf 0022 a297 f4e7 8a3f
000006d0: 00dc 4e8b fe92 8b3f 002a e4d1 db8e 8dbf
000006e0: 0010 553b fab3 4c3f 0005 ba8a 3bef 8dbf
000006f0: 0000 bd72 f125 4c3f 0090 b49c 9e75 813f
00000700: 00ee 0cea 4853 8d3f 00ce b09f d9f1 823f
00000710: 00de 1862 be8c a03f 00b8 d0ac 655f 65bf
00000720: 0040 e9cc 3977 5c3f 0080 a966 3df8 4a3f
00000730: 006c 8f2a d6ba 913f 0020 0900 6ccb 7e3f
00000740: 0040 fd75 0d27 7f3f 0024 b02d f03a 893f
00000750: 0080 d4bb 2378 5cbf 004a d1ae cf4a 81bf
00000760: 0092 20c8 1cad 923f 0070 98cf 8a1f 92bf
00000770: 0078 86b8 bbc9 833f 0020 5189 0161 733f
00000780: 00c8 3608 5d88 70bf 00d0 d3e6 7e82 7d3f
00000790: 00b0 32f0 b86c 863f 00b0 5b1a a1d3 803f
000007a0: 00c2 b10b 559f 90bf 00e7 1268 fb12 95bf
000007b0: 00dc ee74 a437 78bf 00cc 1d9a 4aa6 6c3f
000007c0: 00d0 7ccb 5284 6e3f 0030 ce6c 63cb 6bbf
000007d0: 00e4 176a bc9d 9fbf 0034 01da 414e 953f
000007e0: 00a0 ee1c 8989 983f 0080 5191 8235 7bbf
000007f0: 0008 b554 e2bc 8abf 00e3 e994 719a a2bf
